…
I0727 01:21:13.146324  4925 net.cpp:313] The NetState phase (0) differed from the phase (1) specified by a rule in layer data
I0727 01:21:13.146359  4925 net.cpp:313] The NetState phase (0) differed from the phase (1) specified by a rule in layer loss
I0727 01:21:13.146507  4925 net.cpp:49] Initializing net from parameters: 
state {
  phase: TRAIN
}
layer {
  name: "data"
  type: "HDF5Data"
  top: "dataMR"
  top: "dataCT"
  include {
    phase: TRAIN
  }
  hdf5_data_param {
    source: "./trainProstate_list.txt"
    batch_size: 10
    shuffle: true
  }
}
layer {
  name: "conv1a"
  type: "Convolution"
  bottom: "dataMR"
  top: "conv1a"
  param {
    lr_mult: 1
  }
  param {
    lr_mult: 2
  }
  convolution_param {
    num_output: 32
    pad: 1
    kernel_size: 3
    stride: 1
    weight_filler {
      type: "xavier"
    }
    bias_filler {
      type: "constant"
      value: 0
    }
    engine: CAFFE
  }
}
layer {
  name: "relu1a"
  type: "ReLU"
  bottom: "conv1a"
  top: "conv1a"
}
layer {
  name: "conv1b"
  type: "Convolution"
  bottom: "conv1a"
  top: "conv1b"
  param {
    lr_mult: 1
  }
  param {
    lr_mult: 2
  }
  convolution_param {
    num_output: 32
    pad: 1
    kernel_size: 3
    stride: 1
    weight_filler {
      type: "xavier"
    }
    bias_filler {
      type: "constant"
      value: 0
    }
    engine: CAFFE
  }
}
layer {
  name: "relu1b"
  type: "ReLU"
  bottom: "conv1b"
  top: "conv1b"
}
layer {
  name: "conv1c"
  type: "Convolution"
  bottom: "conv1b"
  top: "conv1c"
  param {
    lr_mult: 1
  }
  param {
    lr_mult: 2
  }
  convolution_param {
    num_output: 32
    pad: 1
    kernel_size: 3
    stride: 1
    weight_filler {
      type: "xavier"
    }
    bias_filler {
      type: "constant"
      value: 0
    }
    engine: CAFFE
  }
}
layer {
  name: "relu1c"
  type: "ReLU"
  bottom: "conv1c"
  top: "conv1c"
}
layer {
  name: "conv2a"
  type: "Convolution"
  bottom: "conv1c"
  top: "conv2a"
  param {
    lr_mult: 1
  }
  param {
    lr_mult: 2
  }
  convolution_param {
    num_output: 64
    pad: 1
    kernel_size: 3
    stride: 1
    weight_filler {
      type: "xavier"
    }
    bias_filler {
      type: "constant"
      value: 0
    }
    engine: CAFFE
  }
}
layer {
  name: "relu2a"
  type: "ReLU"
  bottom: "conv2a"
  top: "conv2a"
}
layer {
  name: "conv2b"
  type: "Convolution"
  bottom: "conv2a"
  top: "conv2b"
  param {
    lr_mult: 1
  }
  param {
    lr_mult: 2
  }
  convolution_param {
    num_output: 64
    pad: 1
    kernel_size: 3
    stride: 1
    weight_filler {
      type: "xavier"
    }
    bias_filler {
      type: "constant"
      value: 0
    }
    engine: CAFFE
  }
}
layer {
  name: "relu2b"
  type: "ReLU"
  bottom: "conv2b"
  top: "conv2b"
}
layer {
  name: "conv3a"
  type: "Convolution"
  bottom: "conv2b"
  top: "conv3a"
  param {
    lr_mult: 1
  }
  param {
    lr_mult: 2
  }
  convolution_param {
    num_output: 32
    pad: 1
    kernel_size: 3
    stride: 1
    weight_filler {
      type: "xavier"
    }
    bias_filler {
      type: "constant"
      value: 0
    }
    engine: CAFFE
  }
}
layer {
  name: "relu3a"
  type: "ReLU"
  bottom: "conv3a"
  top: "conv3a"
}
layer {
  name: "conv3b"
  type: "Convolution"
  bottom: "conv3a"
  top: "conv3b"
  param {
    lr_mult: 1
  }
  param {
    lr_mult: 2
  }
  convolution_param {
    num_output: 1
    pad: 1
    kernel_size: 3
    stride: 1
    weight_filler {
      type: "xavier"
    }
    bias_filler {
      type: "constant"
      value: 0
    }
    engine: CAFFE
  }
}
layer {
  name: "loss"
  type: "EuclideanLoss"
  bottom: "conv3b"
  bottom: "dataCT"
  top: "loss"
  include {
    phase: TRAIN
  }
}
I0727 01:21:13.146606  4925 layer_factory.hpp:77] Creating layer data
I0727 01:21:13.146627  4925 net.cpp:91] Creating Layer data
I0727 01:21:13.146634  4925 net.cpp:399] data -> dataMR
I0727 01:21:13.146670  4925 net.cpp:399] data -> dataCT
I0727 01:21:13.146693  4925 hdf5_data_layer.cpp:80] Loading list of HDF5 filenames from: ./trainProstate_list.txt
I0727 01:21:13.146731  4925 hdf5_data_layer.cpp:94] Number of HDF5 files: 10
I0727 01:21:13.147637  4925 hdf5.cpp:32] Datatype class: H5T_FLOAT
I0727 01:21:13.492858  4925 net.cpp:141] Setting up data
I0727 01:21:13.492911  4925 net.cpp:148] Top shape: 10 1 32 32 32 (327680)
I0727 01:21:13.492918  4925 net.cpp:148] Top shape: 10 1 32 32 32 (327680)
I0727 01:21:13.492930  4925 net.cpp:156] Memory required for data: 2621440
I0727 01:21:13.492949  4925 layer_factory.hpp:77] Creating layer conv1a
I0727 01:21:13.492986  4925 net.cpp:91] Creating Layer conv1a
I0727 01:21:13.492995  4925 net.cpp:425] conv1a <- dataMR
I0727 01:21:13.493013  4925 net.cpp:399] conv1a -> conv1a
I0727 01:21:13.494431  4925 net.cpp:141] Setting up conv1a
I0727 01:21:13.494454  4925 net.cpp:148] Top shape: 10 32 32 32 32 (10485760)
I0727 01:21:13.494459  4925 net.cpp:156] Memory required for data: 44564480
I0727 01:21:13.494480  4925 layer_factory.hpp:77] Creating layer relu1a
I0727 01:21:13.494496  4925 net.cpp:91] Creating Layer relu1a
I0727 01:21:13.494503  4925 net.cpp:425] relu1a <- conv1a
I0727 01:21:13.494508  4925 net.cpp:386] relu1a -> conv1a (in-place)
I0727 01:21:13.653921  4925 net.cpp:141] Setting up relu1a
I0727 01:21:13.653972  4925 net.cpp:148] Top shape: 10 32 32 32 32 (10485760)
I0727 01:21:13.653977  4925 net.cpp:156] Memory required for data: 86507520
I0727 01:21:13.653985  4925 layer_factory.hpp:77] Creating layer conv1b
I0727 01:21:13.654011  4925 net.cpp:91] Creating Layer conv1b
I0727 01:21:13.654017  4925 net.cpp:425] conv1b <- conv1a
I0727 01:21:13.654034  4925 net.cpp:399] conv1b -> conv1b
I0727 01:21:13.654424  4925 net.cpp:141] Setting up conv1b
I0727 01:21:13.654443  4925 net.cpp:148] Top shape: 10 32 32 32 32 (10485760)
I0727 01:21:13.654448  4925 net.cpp:156] Memory required for data: 128450560
I0727 01:21:13.654466  4925 layer_factory.hpp:77] Creating layer relu1b
I0727 01:21:13.654484  4925 net.cpp:91] Creating Layer relu1b
I0727 01:21:13.654487  4925 net.cpp:425] relu1b <- conv1b
I0727 01:21:13.654494  4925 net.cpp:386] relu1b -> conv1b (in-place)
I0727 01:21:13.654639  4925 net.cpp:141] Setting up relu1b
I0727 01:21:13.654657  4925 net.cpp:148] Top shape: 10 32 32 32 32 (10485760)
I0727 01:21:13.654661  4925 net.cpp:156] Memory required for data: 170393600
I0727 01:21:13.654666  4925 layer_factory.hpp:77] Creating layer conv1c
I0727 01:21:13.654683  4925 net.cpp:91] Creating Layer conv1c
I0727 01:21:13.654688  4925 net.cpp:425] conv1c <- conv1b
I0727 01:21:13.654695  4925 net.cpp:399] conv1c -> conv1c
I0727 01:21:13.655074  4925 net.cpp:141] Setting up conv1c
I0727 01:21:13.655092  4925 net.cpp:148] Top shape: 10 32 32 32 32 (10485760)
I0727 01:21:13.655097  4925 net.cpp:156] Memory required for data: 212336640
I0727 01:21:13.655112  4925 layer_factory.hpp:77] Creating layer relu1c
I0727 01:21:13.655118  4925 net.cpp:91] Creating Layer relu1c
I0727 01:21:13.655123  4925 net.cpp:425] relu1c <- conv1c
I0727 01:21:13.655129  4925 net.cpp:386] relu1c -> conv1c (in-place)
I0727 01:21:13.655411  4925 net.cpp:141] Setting up relu1c
I0727 01:21:13.655431  4925 net.cpp:148] Top shape: 10 32 32 32 32 (10485760)
I0727 01:21:13.655436  4925 net.cpp:156] Memory required for data: 254279680
I0727 01:21:13.655441  4925 layer_factory.hpp:77] Creating layer conv2a
I0727 01:21:13.655458  4925 net.cpp:91] Creating Layer conv2a
I0727 01:21:13.655463  4925 net.cpp:425] conv2a <- conv1c
I0727 01:21:13.655470  4925 net.cpp:399] conv2a -> conv2a
I0727 01:21:13.656005  4925 net.cpp:141] Setting up conv2a
I0727 01:21:13.656023  4925 net.cpp:148] Top shape: 10 64 32 32 32 (20971520)
I0727 01:21:13.656041  4925 net.cpp:156] Memory required for data: 338165760
I0727 01:21:13.656072  4925 layer_factory.hpp:77] Creating layer relu2a
I0727 01:21:13.656080  4925 net.cpp:91] Creating Layer relu2a
I0727 01:21:13.656085  4925 net.cpp:425] relu2a <- conv2a
I0727 01:21:13.656091  4925 net.cpp:386] relu2a -> conv2a (in-place)
I0727 01:21:13.656244  4925 net.cpp:141] Setting up relu2a
I0727 01:21:13.656262  4925 net.cpp:148] Top shape: 10 64 32 32 32 (20971520)
I0727 01:21:13.656266  4925 net.cpp:156] Memory required for data: 422051840
I0727 01:21:13.656271  4925 layer_factory.hpp:77] Creating layer conv2b
I0727 01:21:13.656291  4925 net.cpp:91] Creating Layer conv2b
I0727 01:21:13.656296  4925 net.cpp:425] conv2b <- conv2a
I0727 01:21:13.656303  4925 net.cpp:399] conv2b -> conv2b
I0727 01:21:13.658107  4925 net.cpp:141] Setting up conv2b
I0727 01:21:13.658129  4925 net.cpp:148] Top shape: 10 64 32 32 32 (20971520)
I0727 01:21:13.658133  4925 net.cpp:156] Memory required for data: 505937920
I0727 01:21:13.658154  4925 layer_factory.hpp:77] Creating layer relu2b
I0727 01:21:13.658169  4925 net.cpp:91] Creating Layer relu2b
I0727 01:21:13.658174  4925 net.cpp:425] relu2b <- conv2b
I0727 01:21:13.658188  4925 net.cpp:386] relu2b -> conv2b (in-place)
I0727 01:21:13.658474  4925 net.cpp:141] Setting up relu2b
I0727 01:21:13.658495  4925 net.cpp:148] Top shape: 10 64 32 32 32 (20971520)
I0727 01:21:13.658500  4925 net.cpp:156] Memory required for data: 589824000
I0727 01:21:13.658505  4925 layer_factory.hpp:77] Creating layer conv3a
I0727 01:21:13.658524  4925 net.cpp:91] Creating Layer conv3a
I0727 01:21:13.658529  4925 net.cpp:425] conv3a <- conv2b
I0727 01:21:13.658536  4925 net.cpp:399] conv3a -> conv3a
I0727 01:21:13.659062  4925 net.cpp:141] Setting up conv3a
I0727 01:21:13.659080  4925 net.cpp:148] Top shape: 10 32 32 32 32 (10485760)
I0727 01:21:13.659085  4925 net.cpp:156] Memory required for data: 631767040
I0727 01:21:13.659098  4925 layer_factory.hpp:77] Creating layer relu3a
I0727 01:21:13.659114  4925 net.cpp:91] Creating Layer relu3a
I0727 01:21:13.659119  4925 net.cpp:425] relu3a <- conv3a
I0727 01:21:13.659126  4925 net.cpp:386] relu3a -> conv3a (in-place)
I0727 01:21:13.659411  4925 net.cpp:141] Setting up relu3a
I0727 01:21:13.659432  4925 net.cpp:148] Top shape: 10 32 32 32 32 (10485760)
I0727 01:21:13.659437  4925 net.cpp:156] Memory required for data: 673710080
I0727 01:21:13.659442  4925 layer_factory.hpp:77] Creating layer conv3b
I0727 01:21:13.659461  4925 net.cpp:91] Creating Layer conv3b
I0727 01:21:13.659466  4925 net.cpp:425] conv3b <- conv3a
I0727 01:21:13.659482  4925 net.cpp:399] conv3b -> conv3b
I0727 01:21:13.659696  4925 net.cpp:141] Setting up conv3b
I0727 01:21:13.659715  4925 net.cpp:148] Top shape: 10 1 32 32 32 (327680)
I0727 01:21:13.659719  4925 net.cpp:156] Memory required for data: 675020800
I0727 01:21:13.659734  4925 layer_factory.hpp:77] Creating layer loss
I0727 01:21:13.659754  4925 net.cpp:91] Creating Layer loss
I0727 01:21:13.659759  4925 net.cpp:425] loss <- conv3b
I0727 01:21:13.659765  4925 net.cpp:425] loss <- dataCT
I0727 01:21:13.659780  4925 net.cpp:399] loss -> loss
I0727 01:21:13.659831  4925 net.cpp:141] Setting up loss
…
